cv_competition/saved_model/model.pth (torch_old, 116906 bytes, 6 tensors)

cnn1.weight f4 [16, 1, 5, 5]
0	0x3da694ff	0.081338875
1	0xbe5d6f06	-0.21624383
2	0xbe314f55	-0.17315419
3	0xbde46f5f	-0.11154055
4	0xbda5de2d	-0.08099017
5	0x3e0f791b	0.14011042
6	0xbe4609b4	-0.19339639
7	0xbe510b98	-0.20414579
8	0xbdd63787	-0.1045981
9	0xbdd9404e	-0.10607968
10	0x3dfc3fe9	0.123168774
11	0x3dae6dfa	0.0851707
12	0xbcbd000f	-0.023071317
13	0x3d9f8c2b	0.07790407
14	0x3d4bad24	0.049725667
15	0x3cfedcea	0.0311112
16	0x3d6a5618	0.05721101
17	0xbd1645b0	-0.036687553
18	0x3e640caf	0.22270463
19	0x3d29d747	0.04146507
20	0xbd9b2bda	-0.075767234
21	0x3e43a294	0.19104987
22	0xbda332f6	-0.079687044
23	0xbdb1225c	-0.08649132
24	0x3e616372	0.22010592
25	0xbcbcc925	-0.023045132
26	0x3dc51926	0.09623937
27	0xbe8640ab	-0.26221213
28	0x3d5e09c1	0.05420852
29	0xbda7c059	-0.08190984
30	0xbd54d8cc	-0.051964566
31	0xbdb5dadd	-0.088796355
32	0xbe6e8dc4	-0.23296267
33	0xbe2b0322	-0.16700414
34	0x3df9042e	0.12159
35	0x3e1db463	0.15400843
36	0xbdab639e	-0.0836861
37	0xbea8d8c8	-0.3297789
38	0xbd5fdcd5	-0.05465396
39	0xbdfaa8cb	-0.12239226
40	0xbd0cc84e	-0.034370713
41	0x3e8272f8	0.2547834
42	0x3e1a49a3	0.15067153
43	0xbd7c5e11	-0.061613146
44	0xbcd9022c	-0.026490293
45	0xbd8f0c60	-0.06984782
46	0xbd92261c	-0.07136175
47	0xbcd3f7ce	-0.025874998
48	0x3d93374e	0.07188283
49	0x3e5296f3	0.20565395
50	0xbc426d69	-0.011866906
51	0xbe38c18f	-0.18042587
52	0x3e488e9b	0.1958565
53	0xbe79479f	-0.24343728
54	0xbe115b6f	-0.14195035
55	0xbe5fe36a	-0.21864095
56	0xbe837cbe	-0.25681108
57	0x3e278a94	0.16361457
58	0xbe1c7945	-0.15280636
59	0xbc522769	-0.012826779
60	0xbd9bf557	-0.07615154
61	0xbd2c48d2	-0.042061634
62	0x3e51b4d2	0.20479134
63	0xbe4e9220	-0.2017293
64	0xbd32bfa3	-0.04363979
65	0x3d01c80f	0.03168493
66	0x3e5dc49f	0.21657036
67	0x3d862e0c	0.065517515
68	0xbe91b55b	-0.28458676
69	0x3e092ad7	0.13395248
70	0x3de7d0ee	0.11319147
71	0x3e024e3e	0.1272516
72	0xbd7f6e48	-0.06236103
73	0xbdbe5a27	-0.09294539
74	0xbd788f05	-0.06068327
75	0x3a5974a4	0.0008295274
76	0x3e726a3f	0.23673342
77	0x3e84ca8c	0.2593578
78	0xbe3f856a	-0.18703237
79	0x3e558833	0.20852737
80	0x3dda676a	0.10664256
81	0x3eb622f6	0.35573548
82	0x3ec2646b	0.37967238
83	0xbe04ab06	-0.12955865
84	0x3e23f2e0	0.16010618
85	0x3e8a9cb3	0.27072677
86	0x3e2d22be	0.16907784
87	0x3cf9746b	0.03045102
88	0xbe3a1d73	-0.18175296
89	0x3e5bfe6c	0.21483773
90	0x3e64b1fb	0.22333519
91	0xbe3d9a96	-0.18516001
92	0xbe8a65fe	-0.2703094
93	0xbed688af	-0.41901156
94	0xbdf60f42	-0.12014629
95	0x3c4f659b	0.012658502
96	0xbed2f482	-0.4120217
97	0xbed3c4fe	-0.4136123
98	0xbe8dff85	-0.27734008
99	0xbc88d7ff	-0.016704557
100	0x3e1406b9	0.1445569
101	0x3e3d9fca	0.18517986
102	0xbd89aee8	-0.06722814
103	0x3d917e49	0.07104165
104	0x3e36a9a5	0.17838152
105	0x3df2a1c0	0.118472576
106	0xbd4329d7	-0.047647323
107	0x3e1c884d	0.1528637
108	0xbcb10706	-0.021609794
109	0x3dcc473b	0.09974524
110	0xbd9dd93d	-0.077074505
111	0xbc846ce2	-0.0161652
112	0x3e2e9ed7	0.1705278
113	0xbe20f8de	-0.15719935
114	0xbd1d7e08	-0.03845027
115	0xbdb2a3ee	-0.08722673
116	0x39c87da8	0.00038240594
117	0x3e0cace2	0.13737825
118	0xbe51d0e5	-0.20489843
119	0x3e0117c9	0.1260673
120	0x3d70d441	0.05879617
121	0x3e2d3b52	0.1691716
122	0xbdc96d80	-0.098353386
123	0xbd01dbf0	-0.03170389
124	0xbd903606	-0.07041554
125	0x3d1e78d7	0.03868946
126	0xbe519c5d	-0.20469804
127	0x3ddd94b3	0.10819378
128	0x3e4ca1cc	0.19983596
129	0x3db85b43	0.09001782
130	0xbd89478f	-0.06703102
131	0xbe8a8908	-0.27057672
132	0x3e39eb83	0.18156247
133	0x3ea24bc7	0.3169844
134	0x3e45d468	0.19319308
135	0xbe10af1a	-0.14129296
136	0xbe86faa3	-0.26363096
137	0xbc463261	-0.012096972
138	0x3ec8ea93	0.39241466
139	0x3e3af4f4	0.18257505
140	0xbe79d730	-0.24398494
141	0xbee6c5ad	-0.4507269
142	0xbc520c42	-0.012820305
143	0x3ed0faaf	0.40816256
144	0x3d80df93	0.062926434
145	0x3d8e9693	0.069623135
146	0xbea44ef4	-0.32091486
147	0xbc7a1195	-0.015262981
148	0x3e8a5f44	0.27025807
149	0xbdf52ddf	-0.1197164
150	0xbe282c83	-0.1642323
151	0xbe8cb043	-0.27478227
152	0xbdfe7280	-0.12424183
153	0x3e94dd14	0.2907492
154	0x3dfab0e7	0.12240773
155	0xbd8e4ea8	-0.06948596
156	0x3d0515b7	0.032491412
157	0xbeabf967	-0.33588716
158	0x3eb201f0	0.34767103
159	0x3da02c8e	0.07820998
160	0x3d7f4f0b	0.06233124
161	0xbda27521	-0.07932497
162	0xbe8872e0	-0.26650143
163	0x3e91e59b	0.28495488
164	0x3e087905	0.13327415
165	0x3e4ea922	0.20181707
166	0x3df7e464	0.12104109
167	0xbcd45038	-0.025917158
168	0x3b8b1f5b	0.004245681
169	0xbd3df730	-0.046378314
170	0x3e33b31a	0.1754879
171	0x3d57eca5	0.052715916
172	0xbe81fb3b	-0.25386986
173	0x3d678615	0.056524355
174	0x3d5b8ff9	0.0536041
175	0x3c80b62a	0.015711863
176	0x3dbcad97	0.09212797
177	0xbe2b3c3e	-0.167222
178	0xbe007996	-0.12546381
179	0x3e442494	0.19154578
180	0x3bc84095	0.0061112144
181	0x3e04b81a	0.12960854
182	0xbe6f7828	-0.2338568
183	0x3b749786	0.003732176
184	0x3dc4654d	0.09589634
185	0x3dd83ff2	0.105590716
186	0xbc6a29f2	-0.014292227
187	0xbe895317	-0.26821205
188	0x3c6a61e3	0.014305565
189	0x3e256a2f	0.16153787
190	0x3e24ae51	0.16082121
191	0x3d4e76e8	0.050406367
192	0xbe7d9a0f	-0.247658
193	0x3e216dc7	0.15764533
194	0xbdfa146a	-0.12210925
195	0xbe34bfc2	-0.17651275
196	0x3cd2b325	0.025720188
197	0x3d580dea	0.052747644
198	0x3e971b12	0.2951284
199	0xbe51bfea	-0.20483366
200	0x3cd57376	0.026056033
201	0xbe6876b6	-0.22701535
202	0xbdce2078	-0.10064787
203	0x3e3f648a	0.18690696
204	0xbe1ad534	-0.15120393
205	0xbdaf77f7	-0.08567803
206	0x3c7fef8b	0.015621076
207	0x3e04c507	0.12965785
208	0xbda013e7	-0.07816296
209	0x3dbd9dae	0.09258591
210	0x3e6a0c15	0.22856171
211	0x3e31df0a	0.17370239
212	0x3e17983e	0.1480417
213	0x3e7f34d9	0.24922504
214	0x3d2c156e	0.042012624
215	0xbdcbea19	-0.0995676
216	0xbb69287e	-0.0035577114
217	0xbdc7a32d	-0.0974792
218	0x3debe60c	0.11518487
219	0x3dc123c3	0.09430649
220	0xbd6e9e22	-0.058256276
221	0xbd97f9d9	-0.074207015
222	0x3c0087ab	0.007844846
223	0xbe154b2e	-0.1457946
224	0x3db061a1	0.08612371
225	0x3e15b0c5	0.14618213
226	0x3d6efc4e	0.058346085
227	0x3dfdd6d2	0.12394489
228	0x3df8afab	0.12142881
229	0x3d272a82	0.040812023
230	0xbe03aac2	-0.12858108
231	0xbdf6277c	-0.1201925
232	0xbd9b6329	-0.07587273
233	0x3cbf349a	0.023340512
234	0x3e75f1c4	0.24018008
235	0xbe5b11ed	-0.21393557
236	0xbe4fb779	-0.20284833
237	0xbe37e3c8	-0.17957985
238	0x3d109188	0.03529504
239	0x3d1179cc	0.035516545
240	0x3c632e65	0.013866042
241	0xbcf18702	-0.029483322
242	0x3d02d123	0.03193773
243	0x3dc7b921	0.097521074
244	0xbd423d83	-0.047421943
245	0xbe3df959	-0.1855215
246	0xbe45f603	-0.19332127
247	0xbe463023	-0.193543
248	0xbde68027	-0.11254912
249	0xbe075f8c	-0.13220042
250	0xbcef3ec6	-0.029204737
251	0xbccf207d	-0.025284046
252	0x3e5c6de7	0.215263
253	0xbdc92c85	-0.098229446
254	0xbd502704	-0.05081846
255	0x3d7ccf60	0.061721206

cnn1.bias f4 [16]
0	0xbdc78f0e	-0.097440824
1	0xbe96148e	-0.29312557
2	0x3dcfc6dc	0.10145351
3	0xbcc0a94d	-0.023518229
4	0x3e16fefa	0.14745703
5	0x3eb70be9	0.35751274
6	0x3e0d140a	0.13777176
7	0xbd06c88e	-0.032906108
8	0x3eb5fae5	0.3554298
9	0xbeb0de39	-0.34544542
10	0x3badd294	0.005304644
11	0xbf0d4d94	-0.551965
12	0xbe07dd2d	-0.13267966
13	0xbd71ad47	-0.05900314
14	0x3e78b7d3	0.24288873
15	0x3ec00cd7	0.37509796

cnn2.weight f4 [32, 16, 5, 5]
0	0xbc87bbbc	-0.01656901
1	0x3d9cf6b9	0.07664246
2	0x3d4ed373	0.050494622
3	0x3d3f4cbc	0.04670404
4	0xbd99a13c	-0.07501456
5	0xbbfac418	-0.0076527707
6	0x3c2b67ce	0.010461761
7	0x3dade012	0.08490004
8	0x3d49c602	0.0492611
9	0xbd2f60a5	-0.042816777
10	0xbd5683a6	-0.052371643
11	0xbb421068	-0.002961183
12	0x3d60e33b	0.054904204
13	0x3cd3b16b	0.025841435
14	0x3d61c8c0	0.05512309
15	0xbd2a2ef6	-0.04154869
16	0x3caac748	0.020846978
17	0xbc44f7eb	-0.012021999
18	0xbd0c3047	-0.03422573
19	0xbd82a437	-0.06378978
20	0xbd61c138	-0.05511591
21	0x3d42abd3	0.047527146
22	0xbd600e49	-0.054701123
23	0xbd0dc41f	-0.034610864
24	0xbd093472	-0.03349728
25	0x3cd770e1	0.026298942
26	0x3d290c41	0.04127145
27	0x3d1e5d29	0.038663063
28	0x397276a2	0.00023123113
29	0xbd481445	-0.048847456
30	0x3d6e8010	0.0582276
31	0x3d3e5d67	0.046475794
32	0xbb2e51b1	-0.0026598985
33	0x3c4e38b0	0.012586758
34	0x3c0c3ddc	0.00855967
35	0xbbe4ccdb	-0.0069824285
36	0xbcbd8fe8	-0.023139909
37	0x3d9393a2	0.07205893
38	0xbd55b810	-0.05217749
39	0x3cd72d9e	0.02626687
40	0x3d471a23	0.04860891
41	0x3c523bf6	0.012831679
42	0x3d835d16	0.06414239
43	0xbc0d017e	-0.008606313
44	0x3ce66cd8	0.028128073
45	0x3d19f536	0.037587367
46	0xbd25c0e6	-0.040467165
47	0xbd2d671f	-0.042334672
48	0x3c280043	0.010253969
49	0x3bd0b50f	0.00636924
50	0x3ce7ddf8	0.028304085
51	0x3dc580a6	0.09643678
52	0x3da6b391	0.08139718
53	0xbd56d2aa	-0.052447
54	0xbd90be3d	-0.07067535
55	0x3b4ec13d	0.0031548284
56	0x3defe01e	0.11712669
57	0xbd2f2915	-0.04276379
58	0x3cae59ed	0.021283114
59	0xba0df734	-0.0005415559
60	0x3d7a9442	0.061176546
61	0x3d04256c	0.03226225
62	0xbcb4a5a9	-0.02205165
63	0xbd033347	-0.032031324
64	0xbd1799b0	-0.037011802
65	0x3d9821e0	0.07428336
66	0xbd735b4d	-0.059413243
67	0x3cf14910	0.029453784
68	0xbda96842	-0.08271839
69	0x3d1c3dcc	0.03814487
70	0xbccbe394	-0.024888791
71	0xbd71dd16	-0.059048735
72	0xbcd0cedc	-0.025489263
73	0xbb7c6d2c	-0.003851722
74	0x3d2f0047	0.042724874
75	0x3c71d984	0.014761332
76	0x3c2cd07e	0.010547755
77	0x3c851d9c	0.01624947
78	0x3da7b07d	0.08187959
79	0xbd5ac94a	-0.05341462
80	0xbd86d662	-0.06583859
81	0x3d064c0f	0.03278738
82	0xbdcac38f	-0.09900581
83	0xbd287b7a	-0.04113338
84	0xbd3eccdd	-0.04658209
85	0x3d3d3518	0.046193212
86	0x3d3722b4	0.04471083
87	0xbcadf1b9	-0.021233426
88	0xbd46e8d2	-0.04856188
89	0x3c7761cc	0.015099
90	0x3d9462d6	0.07245414
91	0x3dca4d6a	0.09878047
92	0x3d69b0d8	0.057053417
93	0x3c1635c2	0.00916809
94	0x3cb8d5d7	0.022562904
95	0x3d961f51	0.07330192
96	0x3c3017de	0.010747878
97	0x3d59105f	0.05299413
98	0xbdc2ea16	-0.095173046
99	0xbd86c2a4	-0.065800935
100	0xbd973073	-0.07382288
101	0x3cdf41c4	0.02725304
102	0xbd0d2d09	-0.034466777
103	0xbd4814dc	-0.048848018
104	0xbcfa494f	-0.030552534
105	0x3c70c037	0.014694265
106	0x3d07d5a6	0.033162735
107	0xbd7439c2	-0.059625395
108	0xbcc37258	-0.023858234
109	0x3c77abda	0.015116656
110	0x3d9c283e	0.07624863
111	0x3cd0a0bd	0.025467271
112	0xbc29836d	-0.010346276
113	0xbc8c13fe	-0.017099377
114	0xbd5506ca	-0.052008428
115	0x3d2a1476	0.04152342
116	0xbd170a57	-0.036875095
117	0x3d3a1bec	0.045436785
118	0xbca2e896	-0.019886296
119	0x3d5e28d5	0.05423816
120	0x3d5924a7	0.05301347
121	0x3cfdd801	0.030986788
122	0x3d763aaa	0.06011454
123	0x3d874e6e	0.06606756
124	0xb982dcdc	-0.00024960085
125	0x3c0c744e	0.008572651
126	0xbde307e0	-0.110854864
127	0xbdcdc327	-0.10046988
128	0x3cc91959	0.02454822
129	0xbd614961	-0.05500162
130	0x3ddf9e30	0.10918844
131	0xbe0b8d58	-0.13628137
132	0xbdeb8623	-0.11500194
133	0xbd3c64d5	-0.0459946
134	0xbda8c48e	-0.08240615
135	0x3df30c3e	0.118675694
136	0xbd9d3459	-0.07676
137	0xbda696a9	-0.08134205
138	0xbd6ae65a	-0.057348587
139	0xbdbf77c6	-0.09349017
140	0xb85a37c7	-5.2027197e-05
141	0xbd6f851a	-0.058476545
142	0xbdc8ac58	-0.09798497
143	0xbd47a3ba	-0.048740126
144	0x3d023175	0.031785447
145	0xbda54cf0	-0.08071315
146	0xbd6d9c40	-0.05801034
147	0xbda47ba7	-0.08031397
148	0xbd881df5	-0.06646339
149	0xbcacac91	-0.02107838
150	0xbd12d115	-0.035843927
151	0xbcddd5bc	-0.027079456
152	0xbd4cbe66	-0.049986266
153	0xbd2ddbf3	-0.042446088
154	0xbc9fc071	-0.019500943
155	0xbcefe721	-0.029285016
156	0xbd520461	-0.051273707
157	0x3d4c6d1e	0.04990875
158	0x3d8753e3	0.06607797
159	0x3d8297df	0.06376623
160	0x3b701365	0.0036632654
161	0xbd7b1108	-0.06129554
162	0xbcd3698f	-0.02580717
163	0xbdbbed1a	-0.09176083
164	0xbda72c3a	-0.081627324
165	0x3de5012d	0.11181865
166	0xbc906913	-0.017628228
167	0xbba20937	-0.004944946
168	0xbd1c35be	-0.03813719
169	0xbd8fdc92	-0.07024492
170	0xbd344743	-0.044013273
171	0xbc4590c9	-0.012058445
172	0xbd49d174	-0.049272016
173	0xbc9b3524	-0.018946238
174	0xbcbc0c8d	-0.022955203
175	0x3ceac793	0.028659618
176	0x3d8dba7b	0.06920334
177	0xbd4b9c38	-0.04970953
178	0x3d69e2d7	0.057101097
179	0xbdc774b0	-0.09739053
180	0x3da77b59	0.081778236
181	0x39e70a1b	0.00044067283
182	0x3d33732d	0.043811012
183	0xbc7fd761	-0.015615315
184	0xbd173899	-0.03691921
185	0xbceda2c0	-0.02900827
186	0x3d29cf31	0.04145736
187	0xbd381df7	-0.04495045
188	0xbda463a0	-0.080268145
189	0x3c3ee2a8	0.011650719
190	0x3d294646	0.041326784
191	0xbca15e21	-0.019698204
192	0xbd7f4caa	-0.062328972
193	0xbd467ade	-0.04845702
194	0xbda832c9	-0.082128115
195	0x3985c4e3	0.0002551443
196	0xbd35d338	-0.044390887
197	0x3c1646e5	0.009172176
198	0x3c49961c	0.012303855
199	0xbd43da53	-0.047815632
200	0xbb60ce36	-0.0034302599
201	0x3cdf422c	0.027253233
202	0x3bbfbe84	0.0058515687
203	0x3d076e6b	0.033064287
204	0x3c479481	0.012181402
205	0x3c999d64	0.018751808
206	0x3d32e7c7	0.04367807
207	0x3cfbfbb0	0.030759662
208	0x3d3bb659	0.045828197
209	0x3cc3ae0d	0.023886705
210	0x3dd97aaf	0.10619103
211	0x3d9731fc	0.07382581
212	0x3b6fd83c	0.0036597392
213	0xbd3df86e	-0.0463795
214	0xbcc87115	-0.024467984
215	0x3e05440a	0.13014236
216	0x3d011ca9	0.031521473
217	0x3d0cfd8d	0.034421492
218	0x3cb6f7d5	0.022334972
219	0x3d74bdf8	0.05975148
220	0x3ca324a8	0.01991494
221	0x3ca8f6a0	0.020625412
222	0xbd341585	-0.043965835
223	0xbcd100b4	-0.02551303
224	0x3c8596d3	0.01630727
225	0xbb721c0e	-0.0036942991
226	0x3d05d641	0.03267503
227	0x3dbcc012	0.09216322
228	0x3dfad0c1	0.12246848
229	0x3c409b2d	0.011755747
230	0xbd1f01e5	-0.038820166
231	0xbd94486a	-0.072403744
232	0xbb37bbe2	-0.002803557
233	0x3d7f7a33	0.062372398
234	0x3cfc9529	0.030832844
235	0xbcbd1f1a	-0.02308612
236	0xbd680a67	-0.056650545
237	0x3c85e2c4	0.016343482
238	0x3d851271	0.06497658
239	0x3cad310c	0.021141551
240	0x3d0a4831	0.033760253
241	0xbcaaaf06	-0.02083541
242	0xbd84ff50	-0.064940095
243	0x3c9c3b9f	0.019071398
244	0xbd020fac	-0.031753227
245	0xbcf5a2d5	-0.02998487
246	0x3d4effa4	0.050536767
247	0xbc19cd80	-0.009387374
248	0x3c32f3fe	0.01092243
249	0x3d4feda3	0.050763737
250	0xbddbd137	-0.10733264
251	0x3d88cca6	0.066796586
252	0xbd941f0f	-0.072324865
253	0x3d52a7ca	0.051429547
254	0xbd371cb4	-0.044705108
255	0xbd47c6d1	-0.04877359

cnn2.bias f4 [32]
0	0xbcf89c9e	-0.030348118
1	0xbd3ffb53	-0.04687054
2	0xbd777ff8	-0.060424775
3	0x3d24db7b	0.040248375
4	0xbd21ceb4	-0.039503768
5	0x3c1322d4	0.008980472
6	0x3d0258c0	0.03182292
7	0xbd1b08fb	-0.03785036
8	0xbcac57bb	-0.021037927
9	0xbde84bcb	-0.11342581
10	0x3cd05599	0.025431441
11	0x3cac8945	0.021061549
12	0xbd4c7fe4	-0.049926654
13	0x3c43909f	0.011936336
14	0xbdf7afc8	-0.120940745
15	0xbca2afcf	-0.019859223
16	0x3d021bb8	0.031764716
17	0xbd8ec73d	-0.069715954
18	0xbd5d463f	-0.05402207
19	0xbb3d6677	-0.0028900185
20	0xbb2111b5	-0.0024577205
21	0x3d2e0c4e	0.042492203
22	0x3d6e6c2c	0.05820863
23	0xbc0aaf72	-0.008464681
24	0xbd51e05d	-0.05123936
25	0x3c93f978	0.018063292
26	0xbd0a39cb	-0.033746522
27	0x3d873200	0.066013336
28	0xbd792a7b	-0.06083153
29	0x3cd4656c	0.025927268
30	0xbe0570dd	-0.13031335
31	0xbc4e30ce	-0.012584878

fcl.weight f4 [10, 1568]
0	0xbc5400d1	-0.012939648
1	0xbb9cb34c	-0.004782116
2	0xbd11f42c	-0.03563325
3	0x3dde7666	0.108624265
4	0x3c190d22	0.00934151
5	0xbc739f30	-0.014869496
6	0xbc0d8526	-0.008637702
7	0x3d0f7542	0.035023935
8	0xbd18bca1	-0.037289266
9	0xbc7d9453	-0.015477258
10	0x3c2b98d3	0.010473448
11	0x3c4c6a4b	0.012476514
12	0x3ceefc70	0.029173106
13	0xbb326f72	-0.002722707
14	0xbc4d9044	-0.012546603
15	0xbd01ac73	-0.0316586
16	0x3d7d6990	0.06186825
17	0xbc3463a6	-0.011010086
18	0xbc110cc2	-0.008853139
19	0x3cad76db	0.021174839
20	0xbc61b285	-0.0137754725
21	0xbcbc047b	-0.022951355
22	0x3d230ed9	0.03980908
23	0x3d42c6a5	0.047552723
24	0x3be7f99f	0.0070793177
25	0x39c9ecec	0.00038514228
26	0xbc8c0dc7	-0.017096413
27	0xbb3d7c16	-0.0028913072
28	0xbb909087	-0.0044117603
29	0xbc4c03b4	-0.012452055
30	0xbc5ae59f	-0.01336041
31	0x3be5ced4	0.007013181
32	0x3d6dc407	0.058048274
33	0xbc26104c	-0.010135721
34	0x3c150660	0.009095758
35	0x3d424e87	0.04743817
36	0x3d8141b9	0.06311364
37	0xbd76398d	-0.06011348
38	0xbb71ef9b	-0.0036916498
39	0xbbd9060d	-0.0066230358
40	0x3cb271e2	0.02178282
41	0x3d2cc6de	0.042181842
42	0x3cd2e249	0.025742667
43	0x3d862bbc	0.065513104
44	0xbc77eeca	-0.015132615
45	0xbba4b926	-0.005026954
46	0x3c050761	0.008119435
47	0xbd3303bd	-0.043704737
48	0x3dd3cbc6	0.10341601
49	0x3bb7e47d	0.0056119547
50	0xbb815d3f	-0.0039478834
51	0x3d47caf3	0.04877753
52	0x3d007be9	0.03136817
53	0xbd0e32b5	-0.034716327
54	0x3d4349d1	0.04767782
55	0x3c3e85d3	0.011628586
56	0xbb35497f	-0.0027662215
57	0xbd817aad	-0.06322227
58	0x3d032c24	0.032024518
59	0x3bd124c3	0.006382556
60	0xbcd3a149	-0.025833743
61	0x3db5a2c1	0.088689335
62	0x3c6951c9	0.0142406905
63	0x3da8b2e9	0.082372494
64	0x3d0035cc	0.031301305
65	0xbcac8034	-0.021057226
66	0x3b25261e	0.0025199722
67	0x3ab89def	0.0014085154
68	0x3d842ec9	0.06454236
69	0x3cf6b577	0.030115826
70	0x3d3d0265	0.04614486
71	0xbbe8fc89	-0.0071101827
72	0xbcfd9df3	-0.030959105
73	0x3850cab8	4.977986e-05
74	0xbb59caaa	-0.003323237
75	0x3c91ace4	0.017782636
76	0xba0715e8	-0.00051531056
77	0xbd2383ef	-0.039920744
78	0xbc3623bf	-0.011116921
79	0xbbfd75a9	-0.0077349734
80	0xbba5fb91	-0.0050653894
81	0xbd67511e	-0.056473844
82	0xbcd16632	-0.025561426
83	0x3c937556	0.018000286
84	0x3d078161	0.03308237
85	0x3c572685	0.013131742
86	0xbc83bc0f	-0.016080884
87	0xbca8455c	-0.020540886
88	0xbc10863c	-0.0088210665
89	0xbd874067	-0.06604081
90	0x3c531cd8	0.012885295
91	0xbcc9dd77	-0.024641735
92	0x3d5a1ca7	0.05324998
93	0xbdad8c84	-0.08474067
94	0x3c1a1eb7	0.009406737
95	0x3cb86e98	0.022513673
96	0xbdafe51d	-0.08588622
97	0x3d0e47f6	0.034736596
98	0x3cbf972b	0.023387512
99	0x3bab7dc9	0.0052335006
100	0xbd675acf	-0.056483086
101	0x3ca71fd2	0.020400915
102	0x3d4810fb	0.04884432
103	0xbb231e5e	-0.0024889926
104	0xbcb6ee4b	-0.022330424
105	0x3d322d10	0.043500006
106	0xbd67397d	-0.05645131
107	0xbd138dda	-0.036023952
108	0x3d30b739	0.043143485
109	0xbd7e352d	-0.06206243
110	0xbafc2b1d	-0.0019238923
111	0x3cee6cc7	0.029104603
112	0x3c90fadc	0.017697744
113	0xbda703d9	-0.08155031
114	0xbd19266d	-0.03739016
115	0x3b8d7ba3	0.004317717
116	0x3ae948f2	0.0017798229
117	0x3b0a08cf	0.002106238
118	0x3d2f9de0	0.04287517
119	0x3db37471	0.08762444
120	0x3d007198	0.03135833
121	0xbd519fd1	-0.051177803
122	0x3c42097f	0.011843084
123	0xbc92964a	-0.017893929
124	0xbc556551	-0.013024644
125	0x3cc478bf	0.023983357
126	0x3cddaf54	0.027061142
127	0x3d7bc3cc	0.061466023
128	0xbcc0936b	-0.023507794
129	0xbc1863d1	-0.009301142
130	0xbc4fed66	-0.012690878
131	0x3d625b4e	0.055262856
132	0x3d896ed9	0.06710596
133	0x3d714fe2	0.058914073
134	0x3b639868	0.0034728292
135	0xbd79346c	-0.06084101
136	0xbd2be5f3	-0.041967344
137	0x3c058ce1	0.008151264
138	0xbc0a26b2	-0.008432077
139	0x3d82639e	0.06366657
140	0x3c34e4d0	0.011040881
141	0xbd1769af	-0.036966022
142	0xbcb7fc6d	-0.022459233
143	0xbb9a3815	-0.0047063925
144	0xbd43d2f2	-0.047808595
145	0xbd853c68	-0.06505662
146	0x3d3b5093	0.04573114
147	0xbcef97d0	-0.029247195
148	0x3c28e5b8	0.0103086755
149	0x3d9098ba	0.0706038
150	0x3d2a2638	0.041540354
151	0x3d077c8b	0.033077758
152	0x3c1faf16	0.009746334
153	0x3a4e9fc9	0.0007882086
154	0x3d36fc4c	0.044674203
155	0x3ccf54a3	0.025308913
156	0xbb22b9c0	-0.0024829954
157	0x3defa2fb	0.11701008
158	0xbc20ade5	-0.009807085
159	0xbcb10e19	-0.021613168
160	0x3c202b6d	0.0097759785
161	0x3d580242	0.05273653
162	0xbb3e78ab	-0.0029063623
163	0x3d56a6cd	0.052405167
164	0x3dd78cbf	0.10524892
165	0x3d82109f	0.063508265
166	0xbc6ad13a	-0.01433211
167	0x3d392519	0.045201395
168	0x3b61aab2	0.0034434018
169	0xbd98c95a	-0.0746028
170	0x3b521ef8	0.0032061916
171	0x3d1cd30a	0.0382872
172	0xbc1e47e8	-0.0096606985
173	0xbd169769	-0.03676549
174	0xbc88cf98	-0.01670055
175	0xbcb09ae3	-0.02155823
176	0xbd8c51f4	-0.06851569
177	0xbbea824c	-0.007156646
178	0x3c61e348	0.013787098
179	0xbd4a2456	-0.04935106
180	0xbd0c846c	-0.034305975
181	0xbc472a8c	-0.01215614
182	0xbb415a0e	-0.002950314
183	0x3c89cf51	0.016822489
184	0xbc2e5373	-0.010640013
185	0x3ba33cfb	0.0049816347
186	0xbca6c072	-0.020355437
187	0x3ce8d871	0.02842352
188	0x3c298d15	0.010348578
189	0xbbf7e7f9	-0.007565495
190	0xbd193d8c	-0.03741221
191	0xbd484f24	-0.0489036
192	0x3c753430	0.014966056
193	0x3b4a42a4	0.0030862475
194	0x3d165389	0.03670076
195	0x3c3b9536	0.011449149
196	0xbd030b96	-0.03199347
197	0xbc8c92b2	-0.017159794
198	0xbd51b5a2	-0.05119861
199	0xbb6521c2	-0.0034962748
200	0x3de44a35	0.11146966
201	0x3d7cfe56	0.06176599
202	0x3ccf4373	0.025300717
203	0x3c56152f	0.013066574
204	0xbd7aa9e3	-0.061197173
205	0xbc333772	-0.010938512
206	0xbcce54fb	-0.025187006
207	0xbbaee581	-0.0053374176
208	0x3dab76ae	0.08372246
209	0xbc7a5d1a	-0.015280986
210	0x3c0a71bb	0.008449967
211	0x3c7f21eb	0.0155720515
212	0x3d1aac51	0.03776199
213	0xbdb58b7c	-0.08864495
214	0xbd1f4f2b	-0.03889386
215	0x3d04d79c	0.032432184
216	0xbd96a505	-0.07355694
217	0xbc24a1bc	-0.010048326
218	0xbaa7920f	-0.0012784618
219	0x3d716dda	0.058942653
220	0xbd05b6ca	-0.032645024
221	0x3da571d5	0.08078352
222	0x3dd0a33b	0.10187384
223	0xbcebee45	-0.02880014
224	0x3d1fdccd	0.03902893
225	0x3cf9f679	0.030513035
226	0x3d548783	0.051887047
227	0xbc67cc39	-0.014147812
228	0xbbf2bf66	-0.0074080704
229	0x3d260d69	0.040540133
230	0x386bb4ec	5.6196863e-05
231	0xbc731958	-0.014837585
232	0x3d82349a	0.06357689
233	0xbcab6cf4	-0.020925976
234	0xbda114c4	-0.07865289
235	0xbd58cda9	-0.052930508
236	0xba961598	-0.0011450527
237	0x3ce845c8	0.028353587
238	0xbd2cd989	-0.042199645
239	0x3e032b20	0.1280942
240	0xbc5e3929	-0.013563433
241	0xbdbb3ae2	-0.091420904
242	0xbd30dbd8	-0.04317841
243	0xbde4ed95	-0.11178128
244	0x3d7c449f	0.06158888
245	0xbc2972a9	-0.0103422785
246	0xbc77f716	-0.0151345935
247	0x3d16618a	0.036714114
248	0xbd7001b7	-0.058595385
249	0xbc9116c5	-0.017711053
250	0x3dba56a0	0.09098554
251	0x3ca7348a	0.020410795
252	0xba8efa15	-0.001090827
253	0xbabff3c5	-0.0014644793
254	0xbc5b92fd	-0.013401744
255	0xbc435da3	-0.01192418

fcl.bias f4 [10]
0	0x3d3693a4	0.044574395
1	0x3c3af2f7	0.011410466
2	0x3c5dae11	0.01353027
3	0xbc9767f0	-0.018482178
4	0xbc7ba121	-0.01535824
5	0xbd091e14	-0.03347595
6	0x3d33ee85	0.04392864
7	0xbd079103	-0.03309728
8	0x3d59c245	0.053163785
9	0xbbda8270	-0.0066683814
